artifacts/autoencoder.pt (torch, 553185 bytes, 33 tensors)

encoder.0.weight f4 [16, 1, 3, 3]
00000000: 0e92 533d 7e99 c6be 73fe 393e 21b6 d3bc
00000010: 9f18 9fbe 7124 d13e 5bfc 64be 6fcf 6cbe
00000020: 729b 803e 1b0a c33c 1beb 083e accf 60be
00000030: 3495 c13d 8531 633e 0fff c9bd 1c76 80be
00000040: 06ee 213e 131d 1bbc dcad b8be 47c5 d53d
00000050: fb8e 843e c9b2 d2be 9d14 1c3e fa55 833e
00000060: 4b84 91be 5613 2a3d 7981 643e 1f02 733b
00000070: 6014 ae3e d87c cc3d b482 853e 9a36 1abe
00000080: 5f8d a9be d465 65be aab5 26be 22ff 8a3d
00000090: 4f41 3fbe 4778 ddbc 234d 4dbe 9e60 d03d
000000a0: 8446 bd3c 09f7 6d3e ab8b 4ebe f8e8 803d
000000b0: de01 d03c acb7 b1bd 36fb b83d 0b61 cb3e
000000c0: ed3e 8cbe 6a11 54be 6ee1 803e 4bbe bd3c
000000d0: 2a6f eebe 0688 abbb e3c9 ef3d 7790 c53d
000000e0: 3d2e e4bd e2df b2be c856 42bd d115 ccbc
000000f0: f23f 88be 102d 063e 7b81 09be ec4e bdbd
00000100: add6 663e 458e b1bb c912 33be 9721 7c3e
00000110: 06ef 6f3e 588f ccbd 3d76 39be 3375 f4bd
00000120: ce36 1d3d 71a0 2c3d 27ca 243d c8b3 10be
00000130: 2600 233e 3c0c ff3c d84b 5d3e c7cf 463e
00000140: 4519 ae3e 9e75 97be 39ca e2bc 0bf1 85be
00000150: f850 7a3e 77f0 983d 9fbf 5b3e a9b8 c93c
00000160: a622 773e ea8e 903d 1eb1 22bd a983 783e
00000170: 1110 a6be 279f 5a3e 8516 3b3e 338d d3be
00000180: 2f32 1bbd 7d3b f2bd 6352 173d a138 e63d
00000190: 1126 2abe bd5b c1be 430f 883e 7cf9 c33d
000001a0: f192 48be 38b6 843d 2781 c63d 1de9 cc3d
000001b0: bf55 81bc b83f 82be 7630 d6be 37cf c3bd
000001c0: 83f7 bbbd 04ec aebc 3504 a23e 5368 9b3e
000001d0: 8720 e83d 00e3 3e3e d2b6 29be cebc d2be
000001e0: 130c 863d 278b e7be 9b09 9c3e 3100 a7be
000001f0: b5ad e93d 86bd 3d3e dc8f 9e3d 6098 823e
00000200: 165e b7be 6c9b e43e 7490 cabd 8a19 b1be
00000210: 7ef3 7f3e 0898 8fbe 9e2b 0d3d 2222 493e
00000220: 3ca6 2ebe c672 49be 074a 58be 13bd a7be
00000230: 247f 46be afe6 78bd 9da3 033e 0367 553e
0.05165296 -0.3878898 0.18163471 -0.025843682 -0.31073472 0.40848115 -0.22361891 -0.23126005
0.25118595 0.02380853 0.13370936 -0.2195422 0.09452286 0.22186859 -0.09863102 -0.2509011
0.15813455 -0.009467381 -0.36070144 0.10438018 0.25890335 -0.41152027 0.15242238 0.25651532
-0.28421244 0.041522346 0.22315015 0.0037080122 0.3399992 0.099847496 0.2607628 -0.15059891
-0.3311567 -0.22402126 -0.16280237 0.06786944 -0.18677257 -0.027034892 -0.20048957 0.10174678
0.023104914 0.23238768 -0.20170467 0.06294435 0.025391515 -0.08677611 0.0903229 0.39722475
-0.2739176 -0.20709768 0.2517199 0.023162028 -0.46569186 -0.005234721 0.11708429 0.09646695
-0.11141632 -0.34936434 -0.047446042 -0.024912747 -0.26611286 0.13103127 -0.13428299 -0.09243569
0.2254283 -0.005418571 -0.17487635 0.24622189 0.23431024 -0.09988278 -0.1811151 -0.119364165
0.038382344 0.042145196 0.04023185 -0.14131081 0.15918025 0.031133763 0.21610963 0.19415198
0.34003654 -0.29581922 -0.027684318 -0.26160464 0.2444495 0.0746774 0.21459816 0.024624186
0.24134311 0.07058509 -0.039719693 0.24268974 -0.32434133 0.21349774 0.1827031 -0.41318664
-0.037889656 -0.11827753 0.036943804 0.1124127 -0.16616084 -0.37765303 0.26574144 0.0956907
-0.19587304 0.06480068 0.096926026 0.100054 -0.015787957 -0.2543924 -0.41833848 -0.095610075
-0.091780685 -0.021352775 0.31643835 0.3035303 0.11334329 0.18641281 -0.16573647 -0.41159672
0.06545272 -0.45223352 0.30476078 -0.32617334 0.11410085 0.18529329 0.07742283 0.25506878
-0.3581397 0.44649827 -0.098908335 -0.34589797 0.24995229 -0.28045678 0.034465425 0.19641927
-0.17055601 -0.19672689 -0.21121989 -0.3276144 -0.19384438 -0.060766872 0.12855382 0.20840077

encoder.0.bias f4 [16]
00000000: 7848 81be 2562 353e f671 f7bc 9b28 a1bd
00000010: 1ba1 3f3e 31b3 b5bc 770c bbbe 6b46 3d3e
00000020: 9f82 8cbe 5280 c2bd cd96 013e 72dd 263e
00000030: b46b fa3d 03ea 2fbd a42e 2abd 055a 533d
-0.25250602 0.1771322 -0.030205708 -0.07869073 0.187138 -0.022180172 -0.36532947 0.18483894
-0.27443406 -0.094971314 0.12655182 0.16295412 0.12227574 -0.04294778 -0.041548386 0.05159952

encoder.2.weight f4 [32, 16, 3, 3]
00000000: 3e02 713d 6f61 e3bd d31d 84bd 62a9 83bc
00000010: 48c7 babd af4c 96bd 93ee efbb 82b6 f1bd
00000020: 1e18 77bc 04ba 3dbe 9cfc cdbc 8c58 0a3c
00000030: 4bf6 a23d ae48 71be e9f0 b43d 9ff4 493d
00000040: 9c51 34bd 7a4c 8c3b 1802 7f3d 5b9f aa3d
00000050: 04a0 b93b a8ca 82bd b45a 273e 5053 803d
00000060: 6cb4 8cbd b13f 11bd 0df1 673d ec41 91bd
00000070: 582f aebd 5cdb 3ebd 9803 fbbd bd43 cdbd
00000080: 45a7 12bd b9e7 473c 6e03 513d 5627 a83d
00000090: 99c7 ec3d 0654 833d a815 9dbd 9e2c 01bd
000000a0: 2c54 1abd 0898 22bc 8a1c 563b f104 c93d
000000b0: d809 2e3d 4d64 043e efd6 8b3c a4ee bc3d
000000c0: 50a1 de3c 5ced 4e3e 2bd7 003e a2c9 26bd
000000d0: 8163 0f3e b2ca f83c 6a98 cc3d dce1 ba3c
000000e0: 8c12 9dbc 2499 a2bb bafc a43c cc90 fabc
000000f0: a15c 7bbd a685 2e3d fbeb edbc fa54 f7bd
00000100: 959a ef3d b945 3e3d 7bfe b6bd afc7 9b3d
00000110: 116c 2f3d 6e3e 283d 7cc3 febd 4a50 a73c
00000120: 9261 25be b7c9 c43c 20ad 0b3d f30b a8bd
00000130: 308a 9cbd e407 68bd 06fc c1bd 494c dcbd
00000140: fc51 03be d724 63bd 5248 a6bc 7adb 9e3d
00000150: ea2c c43d da3a fcbd a908 113d 2546 6a3d
00000160: 7408 59bd 3c8b 80bd 696c 4b3d f28e 283d
00000170: 9a7c f53c d5d2 af3d 2809 983d a8e5 913c
00000180: fd79 ac3c 0485 3c3d f1b0 763d c4a7 ca3d
00000190: 7d89 30be a25e 70bd 7b41 0d3e bc7a 30bd
000001a0: b986 9c3b bbad 923d eef3 d9bc db07 55be
000001b0: 9782 ab3e 633d c13b d486 7cbd 2a05 5e3e
000001c0: 586b 8a3d f7a1 07be 9a11 2e3e 70d5 373c
000001d0: 42ec 16bb 7f51 003d 0617 07be 603d 4d3d
000001e0: 2e06 7d3c c43c 2d3d 1ae8 f53c e553 633e
000001f0: bf7c ae3d b8e8 e93a 9bf4 00bd 125e 31bd
00000200: 2d64 0bbe 6077 e03d a34b e73d d8ed 1bbe
00000210: e4b0 253e 40d0 163e 8eba 0dbe 313f 14be
00000220: f615 8cbd dcaf c9bc 217b cabd e5db a13c
00000230: f2a3 083d e654 e0bd 2edd 02be 5dc4 853c
00000240: b3e1 f83d 405a 4f3e 6fc1 4e3e 5821 943e
00000250: ced3 ac3e 6947 433e 296a 903e 211a 653e
00000260: 4185 853e 0671 33bc 9c22 77bd be56 953d
00000270: 81ff 59ba 9a87 0abd 055f a43c 7592 fe3c
00000280: 1c11 1e3d d0e4 5a3d 159c a1bd b9b0 92bd
00000290: c65c 653d 32db ddbd 5e61 1f3c 13c0 d53d
000002a0: 9523 22be dbd2 813d 1d44 303e 2c2c 86bc
000002b0: e74c 4ebd 4890 acbc d49d 9ebd 37c8 79bd
000002c0: 334e 65bd c76e e23c c401 97bd b6eb 96bd
000002d0: c68d 853d ded4 9b3d 1fd7 0e3e fee9 073e
000002e0: 4522 403d d34b 57bb 7bab c1ba 8062 963d
000002f0: 19e4 3c3c 1209 69be ea36 46be 6833 5a3c
00000300: 1374 90be f7da 29be 33e2 85bc ecf0 3fbe
00000310: aa7e c13b 984b fa3d 2881 d6bc 93b3 053d
00000320: e46c ba3d e1fe 1d3d 00e6 ad3c ae72 6b3d
00000330: 62a3 6b3c 5cc7 20bc 8591 9c3d c8f6 553d
00000340: 3c7e 8d3c 04b3 bb3d a8a8 efbc 4ee4 763d
00000350: ea67 023d 4ae1 6cbd 258d 35bd afda 3b3d
00000360: c47c babd b1c0 973d 3386 973c 9152 903d
00000370: ec8f 123d f8a7 303d f92f c03d 497f 893d
00000380: 99df 393e bbff 813c 50a5 4d3d 3226 cfbc
00000390: 0539 91bd 1c5d 433d 800e ca3c 2542 98bd
000003a0: 0ded 8c3d d258 563d 623a be3d 04c8 883b
000003b0: 09bd b7bd fbff 7bbd e553 eabd b46f efbd
000003c0: a0f4 eeba 0234 9dbc a110 82bd ad1a acbd
000003d0: bed8 c2ba 9638 26bd ac66 133d 7644 533d
000003e0: fa0b d2bd 9fbb f4bc 108f 58bb 890f 913d
000003f0: 74fa 1f3c 80e2 81bd 6a73 00bd 84b7 15be
0.05884003 -0.11102568 -0.06451001 -0.016071979 -0.09120041 -0.07338845 -0.0073221414 -0.11802389
-0.015081434 -0.1852799 -0.025144868 0.008443963 0.07957133 -0.23562881 0.088350125 0.049305554
-0.04402314 0.0042815777 0.062257856 0.08331176 0.0056648273 -0.0638631 0.16343194 0.062658906
-0.0687035 -0.03546113 0.05662637 -0.07092652 -0.08505124 -0.046595916 -0.12256545 -0.10022686
-0.035804052 0.012201243 0.05102866 0.08210628 0.11561508 0.064125106 -0.07670146 -0.03153669
-0.03767793 -0.009923942 0.003267082 0.098153956 0.042489856 0.12928887 0.017070262 0.092252046
0.02717653 0.20207733 0.1258208 -0.040719636 0.14002801 0.03037009 0.09990008 0.022812776
-0.019173883 -0.0049621034 0.02014004 -0.030586623 -0.061367635 0.042607926 -0.029043188 -0.12076755
0.11699406 0.04645321 -0.08935257 0.07606446 0.04282767 0.041075163 -0.124396294 0.020424027
-0.16150501 0.024021966 0.03410065 -0.08205404 -0.07643545 -0.05664815 -0.09471898 -0.10756738
-0.12824243 -0.055455055 -0.020298157 0.077567056 0.09578879 -0.123159125 0.03540865 0.0571958
-0.052986577 -0.06276557 0.049663935 0.04115195 0.029966641 0.08585135 0.074236214 0.017809704
0.021054262 0.04602529 0.06022734 0.0989528 -0.17239948 -0.058684 0.1379451 -0.0430858
0.0047768024 0.07162043 -0.026605573 -0.20803778 0.3349807 0.0058972104 -0.06165202 0.21681657
0.067587554 -0.13245378 0.16998902 0.011220321 -0.0023029004 0.03132772 -0.13192376 0.05010736
0.015443368 0.04229428 0.030017901 0.22199972 0.08519887 0.0017845845 -0.031483274 -0.043302603
-0.13612433 0.10960269 0.112937234 -0.15227449 0.1618076 0.14727879 -0.13840696 -0.1447723
-0.06840126 -0.02461999 -0.09886766 0.019758174 0.033359475 -0.10953693 -0.12779686 0.016328985
0.12152424 0.20249271 0.20190977 0.2893169 0.33755344 0.1907021 0.28205994 0.22373249
0.26078227 -0.01095224 -0.06033574 0.072919354 -0.0008315966 -0.033820726 0.02006484 0.031075696
0.038590536 0.05344087 -0.078910984 -0.071626134 0.05599668 -0.10832824 0.009727804 0.10437026
-0.15833886 0.063390456 0.17213483 -0.016378485 -0.05036631 -0.021064892 -0.07744947 -0.060981955
-0.05598278 0.027640713 -0.07373384 -0.07369177 0.06521182 0.076089606 0.1394925 0.13272855
0.046907682 -0.0032851591 -0.0014775837 0.07343006 0.011528992 -0.22757366 -0.19356886 0.01331792
-0.28213558 -0.16587435 -0.016343212 -0.18744248 0.005904992 0.122214496 -0.026184633 0.03264196
0.091028005 0.03857315 0.021227837 0.057482414 0.014382215 -0.009813156 0.07644943 0.052237302
0.017272107 0.09165004 -0.029255226 0.060276322 0.03183738 -0.05783204 -0.04432406 0.04586285
-0.091058284 0.074098 0.018496608 0.07046998 0.035781786 0.043128937 0.0938415 0.06713731
0.18151702 0.015869012 0.050206482 -0.025286768 -0.07090954 0.047696218 0.024665117 -0.07434491
0.06881151 0.0523308 0.092884794 0.0041742343 -0.089716025 -0.06152342 -0.11441783 -0.116912276
-0.0018230863 -0.019189838 -0.06350828 -0.084035255 -0.001486562 -0.04058131 0.035986587 0.05157896
-0.102561906 -0.029874621 -0.0033044256 0.07083041 0.0097643025 -0.063420296 -0.031360067 -0.14620787

encoder.2.bias f4 [32]
00000000: df01 4a3d 6ecd 8cbd c3a8 263d 9a13 3dbc
00000010: 723f 073e 570b 62bd fd88 67bb 3066 79bd
00000020: b937 983d 2ebc 823d 9013 253d 02ba bdbb
00000030: affd ce3c de93 5dbd e22d ffbc c6a8 833c
00000040: 75ae c4bc d8d1 353d 5a57 3cbd d3c3 91bd
00000050: bb17 89bd 2305 5a3d 0c21 adbd 141c dc3d
00000060: 5c83 bd3d 4f08 883d cd8e d23d 75f6 8fbd
00000070: 61b6 cd3d b6d0 853d 1c92 863d bec7 d33d
0.04931819 -0.0687512 0.040688287 -0.011540318 0.13207796 -0.055186596 -0.0035329454 -0.06088847
0.07432503 0.06383549 0.04030186 -0.005789996 0.02526745 -0.054096095 -0.031149808 0.016071688
-0.024008969 0.044389576 -0.045981742 -0.07117429 -0.06693979 0.053227555 -0.08453569 0.10747543
0.092535704 0.0664221 0.10281143 -0.0702943 0.10044552 0.06533949 0.06570837 0.10340832

encoder.3.weight f4 [32]
00000000: 5d96 813f cbfa 743f 8398 8a3f 8895 633f
00000010: a51a 693f 82a6 6d3f 0370 403f ccd2 893f
00000020: a874 4f3f 4c46 753f a228 4f3f 7135 433f
00000030: 56ba 7d3f 0668 933f aec2 553f 77dc 723f
00000040: 82d9 713f 4688 563f 04c1 3b3f ebd7 773f
00000050: a971 8b3f 135d 803f be02 413f 13da 813f
00000060: b280 713f 73d0 863f 27b9 843f fac3 7d3f
00000070: 6f7d 983f 9280 643f cc81 883f 9680 9f3f
1.0124012 0.9569518 1.0827793 0.8890004 0.9105628 0.92832196 0.75170916 1.0767455
0.8103738 0.9581039 0.80921376 0.7625342 0.9911245 1.151612 0.8350018 0.9486765
0.94472516 0.83801687 0.73341393 0.9681384 1.0894061 1.0028404 0.7539481 1.0144676
0.94337 1.0532364 1.0369004 0.9912716 1.1913279 0.8925868 1.0664611 1.2461116

encoder.3.bias f4 [32]
00000000: 7819 24bc 4acb 31be 57e0 82be b20b 49be
00000010: a0da 8cbd cfc3 41be 1a8c 80be 62f3 70be
00000020: 07c5 5abe 6c0d 1dbe 8ec0 a4be f33d 91be
00000030: 3cd1 e0bd 0071 10be 7a66 8fbe 2f6e 29be
00000040: 1b86 83be 5589 c9be 219a 8cbe 99bf 14bd
00000050: b0a2 a1be c45e 48be 694e 93be 3910 89be
00000060: b50b 2abe 4473 c1bd 3550 3ebe 2e33 c7bc
00000070: f87d 80be 0c3a 81be 5ff6 b0be 09d0 07be
-0.010015838 -0.17362705 -0.25561783 -0.19633368 -0.06877637 -0.18922351 -0.2510689 -0.23530343
-0.21364222 -0.15337151 -0.32178158 -0.28367576 -0.10977408 -0.14105606 -0.2800787 -0.16545938
-0.25688252 -0.3936259 -0.2746134 -0.036315534 -0.31569433 -0.195674 -0.2877076 -0.2677019
-0.16606028 -0.09445813 -0.18585284 -0.024316397 -0.25096107 -0.252396 -0.34562966 -0.13262953

encoder.3.running_mean f4 [32]
00000000: cddf 573c 3152 11bd d7c0 89bc 91e6 43be
00000010: 22fb 183d 138c 42bc 45c0 1fbe 1f6c 9ebe
00000020: 41c4 08bd 03b4 1d3e 0d83 213c 1952 aa3d
00000030: b8a6 893e a576 b4be 5e0e 26bc 314a 023c
00000040: d210 31be 8c24 023e c79b 5fbe 20a8 84ba
00000050: 25e8 56be 2678 c53c e196 43be 4277 943c
00000060: f078 cb3d 1dc3 40bd 2fff bd3e 5ef0 25be
00000070: 8338 533e 26e7 2bbd d561 793d a9c8 a63c
0.013175917 -0.035478774 -0.016815586 -0.19130923 0.037348874 -0.011874217 -0.15600689 -0.30941865
-0.033390287 0.154007 0.009857905 0.0831644 0.2688501 -0.3524677 -0.010135261 0.007952259
-0.17291573 0.12709254 -0.21836768 -0.0010120906 -0.20986994 0.024105143 -0.19100524 0.018123273
0.09935176 -0.047061075 0.37108752 -0.16204974 0.20627026 -0.041968487 0.060884316 0.020359354

encoder.3.running_var f4 [32]
00000000: 770d 613d 9490 0b3d de04 c03c eb9c 5d3d
00000010: fee5 4d3d 33c8 ea3c c73e 0a3e c58b 0e3d
00000020: 1245 fa3c 2cab 233d 06f0 393d 8975 b33c
00000030: 3f11 163d 50ca 3c3d 2346 d63c 1a71 2b3d
00000040: ca0a 9b3c a672 f13c e2d4 223d a519 033d
00000050: ef9e e03c 3b13 003d 13e1 5a3d 55bc c73c
00000060: f82e 2e3d 4273 633d 3bcc 163d 4d2f 573d
00000070: 3955 103d 9a9e 173d 2921 be3c 5a65 293d
0.05494448 0.034073427 0.02343982 0.054104727 0.050268166 0.028659916 0.1350051 0.034801263
0.030550513 0.039958164 0.04539492 0.021906631 0.03663754 0.046091378 0.02615649 0.04185591
0.018926043 0.029473614 0.039753802 0.03200688 0.027419535 0.03126834 0.053437304 0.024381796
0.04252526 0.05552984 0.036815863 0.052535344 0.035237525 0.03701649 0.023209171 0.041356422

encoder.5.weight f4 [64, 32, 3, 3]
00000000: 6f67 143e c8a8 df3d fbd8 163e b691 0b3d
00000010: 93a4 153e 0211 3a3d 3969 743d 3422 3a3d
00000020: ada7 8cbd 7e27 77bd a4ea f5bc 4fe7 dcbc
00000030: f028 8a3b eb1a 98bd 06b2 ccbc 610c 83bc
00000040: ed7c 0c3d 0301 813d 9368 c23d a0c7 a03d
00000050: e0eb 773d be45 d53d a696 423e b872 1b3e
00000060: 3af3 353e 5f4e fd3d 16ac 0d3d 498f 2a3d
00000070: 4f4c f73b 0bcb 473d b884 8ebc fa45 223d
00000080: 5000 76bd e8cf 28be 17f5 87bc 3cf8 30bd
00000090: 1ce4 97bb 019d 123e e28c e4bc 95b3 a83d
000000a0: 2941 a43d 0416 913d ece0 61bd 4bfa 773d
000000b0: 1507 bfbc 35b3 97bd e1f6 0ebe 56fd 57be
000000c0: 6d36 21be 5369 c2bd 5ff9 6dbe de11 c4bd
000000d0: cec3 c5bd 82da 19bd d4c2 c63d 94bb 9c3d
000000e0: c926 8c3d ae1c 3cbd 30cc 11bc aabd 36bd
000000f0: c24a ffbd 7027 7fbd 9013 483c fcbc bbbd
00000100: 0e63 63bd a203 64bb 8ff1 0dbe 8321 2ebd
00000110: 0af6 3fbd d43e 87bd f952 debd 8179 653d
00000120: 02bf 493d e6d0 c2bd af50 4fbe d102 e6bc
00000130: 9688 febd 0510 95bd 647e 84bc 8876 7bbd
00000140: 2b70 e8bb dc6a cfbd 0261 fb3b 2d6c 83bd
00000150: 0746 b7bd 3e3a 03bc 5670 dd3c c96d 513d
00000160: 2e7a 30bb 4963 163d 5b32 0bbe 5ff4 ae3d
00000170: 1dd9 803d 6462 023d 0d07 17bc 369a 883c
00000180: e0a9 633c b317 f63c 37bd 843c 9dd7 ffbc
00000190: 1d54 b2bd 1f40 afbd 4a44 a33c 9d09 7fbd
000001a0: cf3c e23c 483c 933d 44ba 513d 906e 563d
000001b0: f562 4ebd 5768 953d 27ba a33d 3fd9 273c
000001c0: fe7c f03d 8b11 aa3d 990c 74bc 679a 9c3d
000001d0: 0d99 ab3d 9def 303d a2ed 03bd 5f3e babd
000001e0: d527 b33c 26db 9bbc 7000 83bd 64c4 d63c
000001f0: d8cc 973d 50dc 52bd 90fa 21bd a55b d8bd
00000200: 6bd4 db3c af3c f63c f7cc bcbd 5b82 173c
00000210: 9dd1 323d 05c4 bf3c 4060 ea3a 9c5a 3bbd
00000220: 17b2 ae3c 9202 913d 82ad 8cbc 951c bb3b
00000230: b5c4 cb3c bad6 fcbc 8e28 c03c 4240 a63d
00000240: 0690 8cbd c4e1 f0bd 4036 9fbd 6ad9 e8bb
00000250: 3dd7 ffbb 396b 84bc e266 c93d e2de f13c
00000260: eda0 bb3d cad0 353e 4d53 c03c 42da 6b3d
00000270: ef9d 7f3e ce1b 773d eba1 213d 9034 0e3e
00000280: 7b6b 15bd e2fe 8b3d 3acd 11be 018a a03b
00000290: 649a 9abd fdfa efbd e360 05bd f81d 81bc
000002a0: 30b2 013c 6623 033e 10d4 ecbb d018 ad3d
000002b0: b7ee 783d 512c dcbb da40 823d 561f 073e
000002c0: 2fba 853d 7d8e d43d 4eb4 0f3e 7fee 8d3c
000002d0: 1a7f b1bd 0089 83be 6192 7cbe af00 cf3c
000002e0: 46b4 b5bc 1f3d 84be b1e7 163d 0ceb f93c
000002f0: 0231 0dbe 3e97 18bd 71ec 3ebd 77f5 80bd
00000300: 3c8b 6cbc f7d0 763c 9f4a c23b a79a 52bd
00000310: 38c1 c93c 1b1b 2a3d 7444 61bd 73f0 e5bd
00000320: 5391 41be b02b 703d 03c9 453d 79db 23bd
00000330: 31d4 213d d66a 6bbc 9d4d 56bd 24e7 21be
00000340: 58c4 c7bd 6780 35bd 9c19 c6bd acbd 71bd
00000350: e345 08be 2888 11be 696f 18be 02b8 1dbd
00000360: 4d0e a23d 5d7d 4f3e 639e 953b 26f0 3a3e
00000370: c401 2a3e 3033 8a3d de5c 073e c9f7 bc3c
00000380: d58f a3bd 6b73 dcbd 8e79 3dbd c45b c13c
00000390: 5ccf 70be b4a9 ccbd e1af 23bd 759c 40be
000003a0: e676 46be 24c8 53bc 57aa 1e3d 8648 bf3d
000003b0: cf9d a13d cf6c 383d 8512 023e c14c d93b
000003c0: 156c 103e cdac 153e c9c9 59bd d4e4 cb3c
000003d0: fc50 2a3d 023e 4a3d daa0 08ba 9a1b a33c
000003e0: 2de6 f2bc dcf5 a13c 0ee4 21bd 8de0 c4bc
000003f0: b631 dcbd 35f3 07be b684 06be 5c27 73be
0.14492582 0.10920864 0.14731209 0.034074508 0.14613561 0.045426376 0.05967066 0.045442775
-0.06867919 -0.060340397 -0.030019112 -0.026965765 0.004216306 -0.07427009 -0.024987232 -0.015997114
0.034298826 0.06299021 0.09492602 0.078505754 0.060527682 0.10413693 0.1900278 0.1518048
0.17768565 0.12368464 0.034587942 0.041640554 0.0075469385 0.04877762 -0.01739727 0.039617516
-0.06005889 -0.1648556 -0.01659636 -0.043205485 -0.004635347 0.14317705 -0.02789921 0.082373776
0.08020241 0.07084277 -0.055146143 0.060541432 -0.023318807 -0.07407228 -0.13961364 -0.21092734
-0.15743418 -0.09492745 -0.23239659 -0.095737204 -0.096564874 -0.0375619 0.09705129 0.07652965
0.06843335 -0.04592579 -0.00889878 -0.04461447 -0.12465431 -0.06229347 0.012211695 -0.09166905
-0.055514388 -0.0034792204 -0.13861679 -0.042512428 -0.0468655 -0.066037804 -0.108556695 0.05602408
0.049254425 -0.095125005 -0.20245622 -0.028077515 -0.124283955 -0.07278446 -0.016173549 -0.061392337
-0.0070934496 -0.10127804 0.0076714763 -0.06417117 -0.089489035 -0.0080094915 0.027031105 0.05113009
-0.0026928294 0.03671578 -0.13593428 0.08542704 0.06291411 0.031832114 -0.00921799 0.016675096
0.013895482 0.030040598 0.016203506 -0.031230742 -0.087074496 -0.08557152 0.019930024 -0.062265027
0.027616886 0.07189232 0.051203027 0.052351534 -0.05038734 0.07295292 0.0799449 0.010244667
0.1174259 0.08304127 -0.014895582 0.076466374 0.083788015 0.043197263 -0.032209046 -0.090939276
0.02186958 -0.019025397 -0.06396568 0.026216693 0.07412118 -0.051479638 -0.039545596 -0.10564355
0.026834687 0.030058233 -0.092187814 0.009247388 0.043656934 0.0234089 0.0017881468 -0.04574071
0.021325154 0.070805684 -0.017172579 0.0057101944 0.02487407 -0.030864108 0.023456838 0.08117725
-0.06863408 -0.117618114 -0.07774019 -0.007105996 -0.007807641 -0.016164409 0.098340765 0.029525224
0.091615535 0.17755428 0.02347722 0.057581194 0.2496259 0.06032925 0.039461058 0.13887239
-0.036479454 0.068357244 -0.14238444 0.004899264 -0.07548979 -0.11717794 -0.0325631 -0.01576136
0.007916018 0.12806472 -0.0072274283 0.08451998 0.06077453 -0.00671915 0.06360026 0.13195547
0.06529652 0.1037874 0.14033625 0.017325638 -0.08666821 -0.2569046 -0.24665214 0.02526888
-0.022180688 -0.25827882 0.036842052 0.030507587 -0.13788226 -0.03725361 -0.046612207 -0.06296819
-0.014437493 0.01506447 0.0059293057 -0.05141702 0.024628267 0.041529756 -0.054996923 -0.11227503
-0.18903093 0.058635414 0.048287403 -0.040004227 0.039509002 -0.014368733 -0.05232011 -0.1581083
-0.097542465 -0.044311907 -0.09672853 -0.059018776 -0.1330791 -0.14212096 -0.1488625 -0.03850556
0.07912884 0.20262666 0.0045660003 0.18255672 0.16602236 0.067480445 0.1321902 0.023067372
-0.07986418 -0.10764202 -0.0462585 0.023603328 -0.23516601 -0.09993306 -0.039962653 -0.18809684
-0.19381294 -0.012926135 0.038736667 0.093400046 0.07891428 0.045025643 0.12702377 0.006631464
0.1410373 0.146167 -0.053170953 0.024889387 0.04158114 0.04937554 -0.0005211957 0.019910622
-0.029650772 0.019770555 -0.03952413 -0.024032855 -0.10751669 -0.1327637 -0.13136563 -0.23745483

encoder.5.bias f4 [64]
00000000: 5797 8ebc 2692 59bd 7061 e83c fd0c e23c
00000010: 7933 d93c 2b7c d53c 8bc0 f5bc d164 34bd
00000020: 4adc 233d 5541 943a 4026 bd3c f1c6 00bd
00000030: e025 5d3c 28bb 9dbc 6845 893c f7b2 b93c
00000040: feed 77bd b591 16bd 44ae 463c 8907 323d
00000050: 5d54 883d f8ed b9bc ae50 81bd b90c e83c
00000060: f29e ca3c b128 6dbd bb7e 033d 1464 493d
00000070: 76ec e43c 269c f339 d9b0 ab3c c0df b43c
00000080: cf10 3d3d 4998 3abc 62db 88bb 13c2 4d3d
00000090: 39f5 9e3c 94ad 9fbc 7ad2 3b3d 957d 6e3a
000000a0: 9c60 cebc 3bb8 17bd 2a78 e6bc 7f53 38bc
000000b0: 8c47 d03b 63b3 dcbc 2876 28bd ef77 7c3d
000000c0: a111 66bd 5364 d8bc 8990 123b 93e8 44bc
000000d0: 045b e6bc facb c2bc 885e 4b3d b39c f73c
000000e0: 22fb f93c 4b6f edbc 1ad6 4d3d 292d 1abd
000000f0: 405b 57bd f89c 253d ca25 5dbc 2b68 443d
-0.017406149 -0.053117894 0.028366774 0.027594084 0.026513802 0.026060184 -0.029999038 -0.04404146
0.040005006 0.0011310974 0.023089528 -0.031439725 0.0134978 -0.019254282 0.016756728 0.022668345
-0.0605297 -0.03676005 0.012126509 0.043464217 0.06656716 -0.02269648 -0.063142166 0.02832638
0.024733994 -0.057900134 0.03210328 0.049167708 0.027944785 0.0004646491 0.020958351 0.022079349
0.046158608 -0.011388847 -0.004176543 0.05023391 0.01940404 -0.019491948 0.045855023 0.00090976927
-0.025192551 -0.03704093 -0.02813347 -0.011250376 0.0063561853 -0.026941007 -0.041128308 0.061637815
-0.056169156 -0.026415026 0.0022363982 -0.012018341 -0.028119572 -0.023778904 0.0496507 0.030226087
0.030515257 -0.028983733 0.05025301 -0.037640724 -0.052577257 0.0404329 -0.013497779 0.047950905

encoder.6.weight f4 [64]
00000000: 2d7a aa3f 6da9 803f 76ee a03f eacf 973f
00000010: f9e1 943f b11d 893f 8cac a23f eb29 833f
00000020: 154a 933f ca6c 8f3f a14f 883f a912 953f
00000030: 8224 943f a506 bc3f e386 7d3f fd96 a13f
00000040: 285b 8d3f c7f1 a03f 6d1f 923f 1bb9 933f
00000050: 03f8 9a3f 6bc2 b73f fb19 983f c2f7 8e3f
00000060: 279a 983f 6192 933f c837 9a3f 62b6 773f
00000070: 3ef0 983f e942 a23f 2229 943f d55b 9f3f
00000080: d449 a23f 33bc 883f 185c 913f 9532 8d3f
00000090: a7da a43f c4c1 8a3f 3b2e 9e3f a602 933f
000000a0: 445c 913f 9985 773f 6bc8 903f d08f a03f
000000b0: 46d7 8b3f 5773 9c3f b9c0 963f 9bce a73f
000000c0: 2d4c a13f 51ac 8a3f 2642 803f b941 863f
000000d0: faa5 9b3f aefb 813f fa7a 8d3f 9597 7c3f
000000e0: d902 a13f c404 943f ace8 953f 39a6 993f
000000f0: aa65 8d3f af2f 953f 7ec2 933f 63af 8e3f
1.3318535 1.0051705 1.2572773 1.1860325 1.1631461 1.0712186 1.2708907 1.0247167
1.1506983 1.1205075 1.0649301 1.164632 1.1573641 1.4689528 0.99033946 1.2624203
1.1043444 1.2573785 1.141584 1.1540865 1.2106937 1.4356207 1.1882929 1.116936
1.1922044 1.1529046 1.2048273 0.9676267 1.1948316 1.2676669 1.1575053 1.24499
1.267878 1.0682434 1.135623 1.1031061 1.2879227 1.0840383 1.2357858 1.1485183
1.1356282 0.9668823 1.1311163 1.2543888 1.0925071 1.2222699 1.1777564 1.3109926
1.2601372 1.0833837 1.0020187 1.0488807 1.2160027 1.0154932 1.1053154 0.98668796
1.2578994 1.1563954 1.1711631 1.2003852 1.104665 1.1655177 1.1543729 1.1147274

encoder.6.bias f4 [64]
00000000: 6078 62be 324f b7be 3288 92be d711 a5be
00000010: a19b 7cbe d62b c3be 6a2f 78be 79e3 21be
00000020: 6406 82be caac afbe 3a1c 9ebe fd10 89be
00000030: 9d42 5bbe 987f a0be 3306 88be 14e5 90be
00000040: b0aa a4be eb69 adbe e037 b7be a07a abbe
00000050: 30b9 e3be 3af6 b2be ba80 39be 8d55 6ebe
00000060: 4821 91be 539f 21be 0f5c a1be 4dff e2bd
00000070: da77 a2be ad51 94be 8b0f 8cbe 0070 e4be
00000080: ec7b aabe 0385 94be 2748 92be 341a 94be
00000090: 21fe 2fbe fd31 80be 26c7 50be ea6e bcbe
000000a0: 9f30 abbe 12bc a0be 1794 91be 8d81 a0be
000000b0: 6cc6 89be dd96 d3be f387 20be 03f9 9cbe
000000c0: 2b3d c4be 83a6 04be 1477 b8be 4746 cabe
000000d0: ad2a b0be 0ab8 6abe a00d 36be ea0b 5ebe
000000e0: aa03 c5be 34f8 1cbe bb8d 09be efb1 99be
000000f0: 9e7f b0be 4325 9abe b165 b8be 2352 4fbe
-0.22116232 -0.3580261 -0.28619534 -0.32240173 -0.24668743 -0.38119382 -0.24236837 -0.1580943
-0.253955 -0.34311515 -0.3088091 -0.26770774 -0.2141213 -0.31347346 -0.2656723 -0.28299773
-0.32161474 -0.33869871 -0.35784817 -0.33491993 -0.44477224 -0.3495348 -0.18115512 -0.23274823
-0.28345704 -0.15783434 -0.31515548 -0.11083851 -0.31732064 -0.28968564 -0.27355608 -0.446167
-0.3329767 -0.2900773 -0.28570673 -0.2892624 -0.17186786 -0.25038138 -0.20388469 -0.3680337
-0.33435532 -0.31393486 -0.28433296 -0.3134884 -0.26909196 -0.41326037 -0.1567686 -0.3065873
-0.38327917 -0.12954144 -0.3602835 -0.39506742 -0.3440756 -0.22921768 -0.17778635 -0.21684232
-0.38479358 -0.15329057 -0.13432972 -0.30018565 -0.34472364 -0.30106553 -0.36015084 -0.20246176

encoder.6.running_mean f4 [64]
00000000: 1e74 a9be 2399 56be a778 06bf 58c6 cebe
00000010: 77e0 143f f069 97be 3d21 813d 54ef 6fbf
00000020: d1b3 7abf 6aef 27bf 5dcf 25be 86a3 ebbe
00000030: 3508 7dbf 9614 81bf a42e 1bbf bfde e53d
00000040: 9508 843e 9fd3 d6be d8b6 89bf e318 25bf
00000050: 39a9 7dbf 8d19 abbe 1ac2 593e f2ba 94bf
00000060: 621e 94bd 825a 6d3e 250f 55bf cdb1 17bf
00000070: c91b 463e 56de 51be 03dd 45bf 754a 37be
00000080: 4a86 61bf c0a7 1dbf 89d8 9fbf 188b 033f
00000090: 647f d7bf 1e76 e23e fba7 0bbf 44a6 cd3d
000000a0: 17fe 27be bca0 ecbe cb3c e3bb 6fac 183d
000000b0: b8aa e4be ecda eebe 373c ed3e a10a 0bbf
000000c0: 7768 4cbf 066d b1bf 1462 c9be 7efc 5cbf
000000d0: 3dd6 1abf 332f 65bf e085 5fbe 18ba 79bf
000000e0: 800f 6cbf 6ba3 ca3e e3f9 16bf db45 a7be
000000f0: 4299 89be a436 e1be 348a fbbe 513d 3b3d
-0.33096403 -0.20956855 -0.5252785 -0.403857 0.58155006 -0.2957301 0.06305168 -0.9372456
-0.9793063 -0.6559969 -0.16192384 -0.46023196 -0.9884065 -1.0084407 -0.6061804 0.11224126
0.25787798 -0.4195833 -1.0758924 -0.644911 -0.9908634 -0.3341793 0.2126545 -1.1619551
-0.072323576 0.23179057 -0.83226234 -0.5925568 0.19346537 -0.2049497 -0.7729036 -0.17899497
-0.88095534 -0.6158409 -1.2487956 0.51384115 -1.6835752 0.4423074 -0.5455319 0.10041478
-0.16405521 -0.4621638 -0.0069347373 0.03727382 -0.44661498 -0.466514 0.46335003 -0.54313093
-0.798469 -1.3861396 -0.3933264 -0.8632277 -0.6048315 -0.89525145 -0.21828413 -0.9754958
-0.9221115 0.39577803 -0.58975047 -0.32670483 -0.2687474 -0.43987 -0.49128878 0.045712773

encoder.6.running_var f4 [64]
00000000: 0199 0140 a346 de3f 3065 c33f a996 ef3f
00000010: 2ce3 d63f 4b89 2340 5c58 fa3f 61fe f63f
00000020: 5142 aa3f 1a49 c03f 9f4c cb3f 0c1e 1a40
00000030: 9b56 3140 2f1f e93f da82 1340 3e43 a43f
00000040: 6bcb bc3f 610d 1240 a2cb 0a40 2359 fb3f
00000050: 09e0 8e3f 0925 c63f bff4 0a40 4c3f 1a40
00000060: 08f1 b13f 999f a53f 763f a73f 72e1 0240
00000070: 57a7 f43f 19fb df3f 82a4 f73f ec40 d93f
00000080: eca6 0c40 71ac 1140 da43 b83f ce37 0340
00000090: 57f9 1f40 cc87 f33f 03d8 1640 14b6 b13f
000000a0: 6b00 bf3f 0fd2 e73f 8a5c 1d40 fad2 2c40
000000b0: c883 be3f c84f b23f 11ac 4340 f169 be3f
000000c0: aa89 0440 47ba 1c40 d660 d53f bbe7 a23f
000000d0: 63d4 4a40 7a71 e23f 89fc b73f 235f 3b3f
000000e0: ab04 cd3f c504 b73f f2db 3040 1396 c13f
000000f0: 4fb0 b23f 5063 1f40 e824 c83f 6346 0240
2.0249636 1.7365307 1.5265255 1.8717853 1.6788077 2.5552547 1.9558215 1.929638
1.3301488 1.5022309 1.5882758 2.408084 2.770911 1.8212641 2.3048615 1.2833021
1.4749578 2.2820666 2.1686788 1.9636577 1.116212 1.5480052 2.171188 2.4101133
1.3901682 1.293933 1.3066242 2.04501 1.9113568 1.7498504 1.9347079 1.6972938
2.197688 2.27615 1.4395707 2.050281 2.4995935 1.9025817 2.3569343 1.3883691
1.4922003 1.811098 2.4587731 2.700377 1.4883966 1.3930597 3.057377 1.4876081
2.0709023 2.4488695 1.6670177 1.2726969 3.169213 1.769088 1.4373943 0.7319204
1.601705 1.429833 2.7634244 1.5123924 1.3960055 2.4904366 1.5636263 2.035546

encoder.9.weight f4 [8, 4096]
00000000: a3da 02be bd9d 0abe 4818 00be c6bd b5bd
00000010: a1f6 49bd 8b6e dcbc 86a4 6b3d cdcc bc3d
00000020: 5854 d7bd 3fe6 a3bd 85f7 56be 917f 4abe
00000030: 7e09 a7bd 758c 3d3b 78d9 e43d 3ddf d23d
00000040: 3b8c d93b da33 46bd 220f 65be 7082 23be
00000050: 3d61 26bd 6a97 59bc f436 353d 0eff 423d
00000060: 213d 333c 6a57 68bd b13c 1fbe 53d1 14be
00000070: 978d 9dbd 63c5 2a3b 611c 58bd 9a65 c2bc
00000080: 0f58 aabb 5b90 a13c a7ab 47bc 3847 79bd
00000090: d6ca ae3c 1f45 1d3d 1225 4bbd fb52 e5bc
000000a0: 33fc 19bb 3886 323d 9c45 c83c f80c 243c
000000b0: b168 f13c c4bf f0bc e3d3 8e3c 07b8 f53b
000000c0: 3a8a 36bd ba83 64bd 1402 1abe 595a 06be
000000d0: 97e4 15be b0c5 4dbe 0a2d 02be 24af f5bc
000000e0: 20d0 4abd 8dc2 92bd 3249 87bd b6f4 f3bd
000000f0: ce1c 18be 7f56 93bd 2a24 d6bd 9470 1cbd
00000100: dc1c 30bc ddb5 733e 4677 5e3d c593 61bd
00000110: b44f 7b3c 68ac 24bc d148 9fbd 6ab4 10be
00000120: 38ee c43c 8611 873d ca85 1b3e 1978 a13d
00000130: 3f63 be3d 8ffd 1c3e 722a 9b3c 3684 dabd
00000140: 4b1e 19bc f048 4e3c 281b 583d 3c36 ea3d
00000150: c3b8 ad3d fe28 f63d 45f0 3c3c 39cf 0cbe
00000160: a79f 46bd 8e11 17bc c444 d4bc d49d 87bd
00000170: afc6 50bd 0d40 14bd da8f 9ebd 9e54 6dbd
00000180: 7905 debd c9a7 30bd 4af6 a5bc 33dc 58bd
00000190: f783 253d 30c8 15bd d23b bcbc b107 34bd
000001a0: e6f1 04bd 41d6 90bd ec62 01bd b424 2a3d
000001b0: 9813 333d ec79 663c 516e 9fbc 7a7b 30bd
000001c0: 5359 f2bc 0d84 593c bf14 613c 049d c63c
000001d0: 225e 4f3d 1354 f13c 58df 97bd 86b2 07be
000001e0: 4cc7 3c3d f0ec 97bc 283e 6fbd 95cb ecbc
000001f0: 58c7 e9bc 7c9a c13c b62e 9ebc e6be 48be
00000200: d797 c8bc 6738 033d 953e b53d f6ea 10be
00000210: 9eca 98bd 523e 8abd 5b8e ffbd 6762 043c
00000220: ad57 573d a2b5 383d 037f 3b3e e06f 7a3d
00000230: e105 93bd 6817 21be 5742 a6bd 5078 b6bd
00000240: b57d 163d ff86 083e 7597 ba3e 134c 673e
00000250: 1c5a b43d 5e34 9cbd 5a7f f9bd af42 cdbd
00000260: 435a d03b 0f11 3c3e e07d b83d 378b e63d
00000270: d2ab 073e 6693 793d 8ce0 c43b c25c eebc
00000280: 71a5 1c3d 0572 973d 0b77 3c3d fa1b a33d
00000290: 1620 ca3d 5098 ba3d a8c4 1b3c 878b e63b
000002a0: 5533 dcbc 26f7 0fbc d1de 133d 59a8 6cbd
000002b0: db72 ae3d 805b 813d fc37 65bd 49eb 3abd
000002c0: 2045 9fbd 3d2e a9bc a718 c1bd fca0 a0bc
000002d0: 8312 a1bc b72b 0e3d 04e3 23bd 0d30 d7bd
000002e0: 4ef8 afbd e28d 183d 2167 02bd 8cb6 823c
000002f0: 4862 d3bb 84df 4abd f866 cbbd a3ac cdbd
00000300: fe5c 9ebb e338 14bc f6d2 ce3c c2dd 51bd
00000310: c4f5 0fbd e6cc 94bd 08c6 cdbd 6759 df3c
00000320: a8ea 05bd 9262 383e 2d85 da3d c26b 82bd
00000330: 7ee1 93bd 4116 babd a923 463c 9d25 acbc
00000340: 4e0f 0b3d 27a8 2e3e e0ba fe3d 39c0 9abc
00000350: e24f 10bd ff1d b1bc 9ef1 863d e27e 513d
00000360: d0c1 813d f380 f53d a9f4 633d 0502 8a3d
00000370: 0477 14be 41b7 23bd 9c65 853d 1d2e 4d3d
00000380: bf78 1cbd 728a cdbd 4817 8abd 4048 643d
00000390: bd0a 9a3d c15b 523d 2452 b23c 694c 7c3d
000003a0: 6c50 bbbc 95fd a2bd 894a cbbd 24e4 20bd
000003b0: fc1e 3b3d 9e97 0b3d 5d8f 60bc 8457 15ba
000003c0: 55c6 09bd 8990 71bd cf7a 04be bd10 c8bd
000003d0: 676d acba 525b 683d 0e03 d8ba 7873 edbd
000003e0: 1003 35bc afed 07bc 6b36 2cbd 687b ea3b
000003f0: fe29 7e3d 1646 703c 9d70 36bd 7e7f 25be
-0.12778716 -0.13536735 -0.12509263 -0.08874087 -0.04930747 -0.02690818 0.05752995 0.0921875
-0.10514134 -0.080029 -0.20992859 -0.19775225 -0.08156107 0.002892283 0.11174291 0.102964856
0.006639031 -0.048389293 -0.22369054 -0.15967727 -0.040620077 -0.013280729 0.04424186 0.04760652
0.010939867 -0.05672399 -0.15550496 -0.14532976 -0.07693022 0.0026057593 -0.05276144 -0.023730088
-0.0051984857 0.019722154 -0.012186921 -0.060858935 0.021336954 0.038395997 -0.0495959 -0.02799367
-0.002349627 0.043585032 0.024447255 0.010012858 0.029468866 -0.029388316 0.01743502 0.0074987444
-0.044565417 -0.055789687 -0.15039855 -0.13120402 -0.14637981 -0.20094943 -0.12712494 -0.02999074
-0.04951489 -0.07166014 -0.06605758 -0.11911909 -0.14854738 -0.07194232 -0.104561165 -0.0381933
-0.010749068 0.23799844 0.054312967 -0.055072565 0.015338827 -0.0100508705 -0.077775605 -0.14131323
0.024039373 0.06595139 0.15187755 0.07884235 0.092962734 0.153311 0.018941138 -0.106697485
-0.009345601 0.012590632 0.052760273 0.11436126 0.08482506 0.120195374 0.011531894 -0.13750924
-0.0484921 -0.009220494 -0.025911696 -0.066219 -0.05097073 -0.036193896 -0.07742281 -0.057942025
-0.108408876 -0.043128762 -0.020259041 -0.052944373 0.040409055 -0.036567867 -0.022977743 -0.043952648
-0.032457255 -0.07072116 -0.03158848 0.04153891 0.043719858 0.014067154 -0.019461783 -0.043086506
-0.029583609 0.013276112 0.013737856 0.024244793 0.05062688 0.029459035 -0.07415646 -0.13251695
0.0460885 -0.018545598 -0.058408886 -0.02890567 -0.028537437 0.023633234 -0.019309383 -0.19604072
-0.024486465 0.03203621 0.08849827 -0.1415213 -0.07460521 -0.06750168 -0.12478324 0.008080102
0.05257385 0.045095094 0.1831017 0.06114185 -0.07178856 -0.15731585 -0.08118122 -0.089096665
0.036740977 0.13332747 0.36443678 0.22587614 0.088062495 -0.07627176 -0.121824935 -0.100224845
0.0063584163 0.18365882 0.09008384 0.11257022 0.13249138 0.060931586 0.0060082134 -0.029096965
0.038243715 0.073947944 0.046011966 0.079643205 0.09869401 0.091110826 0.009507336 0.007035676
-0.026879946 -0.008786952 0.036101166 -0.057777736 0.08518001 0.0631628 -0.055961594 -0.04563454
-0.077768564 -0.020651931 -0.0942853 -0.019608013 -0.019662147 0.03470966 -0.04001142 -0.10507212
-0.08592282 0.037244685 -0.031836633 0.015956186 -0.006450925 -0.049529567 -0.09931749 -0.100426935
-0.004832863 -0.009046766 0.025247078 -0.051236875 -0.03514649 -0.07265644 -0.10047537 0.02726431
-0.03269449 0.18006352 0.106699325 -0.063682094 -0.072207436 -0.09086276 0.012093463 -0.02101403
0.033950143 0.17056333 0.12437987 -0.018890487 -0.035232432 -0.021620749 0.065890536 0.051146396
0.06335795 0.11987486 0.055653248 0.067386664 -0.14498526 -0.039969686 0.06513521 0.050092805
-0.03820109 -0.10036172 -0.06742722 0.055732965 0.075215794 0.051357035 0.021767683 0.061596308
-0.022865497 -0.07958523 -0.09926326 -0.03928007 0.045683846 0.03408014 -0.0137060555 -0.000569694
-0.03363641 -0.05897573 -0.12937473 -0.097688176 -0.0013155163 0.056727715 -0.0016480403 -0.115942895
-0.011048093 -0.008296414 -0.042044085 0.0071558245 0.062051766 0.014665147 -0.04454099 -0.16161916

encoder.9.bias f4 [8]
00000000: c0d7 5ebd ed35 263c 94ab 2e3c 4393 023a
00000010: be8a d8b9 beeb 63bd 60b2 133d c9e5 723d
-0.054404974 0.010144693 0.010661025 0.000498105 -0.000413021 -0.055644743 0.036058784 0.05930117

decoder.0.weight f4 [4096, 8]
00000000: 13ca df3e 35e5 913e 917f 213e 6bb0 b13d
00000010: ebe3 153e bcab ddbe 2ada a3be 4461 8e3e
00000020: 8896 733e ad5a 093e 439d e03e 43a5 073e
00000030: f5f0 c73c a4cc 2c3d 45d5 563e 9d2d 463c
00000040: 41fa 0b3c 76ad abbd e2a5 f4bc 15e2 9bbe
00000050: 0557 29be 9092 d7bd 389b 313d 52d2 513e
00000060: a90b 86bd d991 5b3e c7a7 54be b9f8 e7bd
00000070: b689 5fbd d96d 49be c09d 69be 1e4f d2bd
00000080: 6fd4 58bd 01ba f5bd 568d f13c d689 7e3e
00000090: c78a 88be 56bf d83d db83 ad3e 3a71 bc3e
000000a0: 4baa debd 4694 423e 1fdd 2a3e 901a 40be
000000b0: edf7 b93e bda0 7c3e d7f7 6c3e f034 84be
000000c0: a3fd 53be d3a9 4b3e 3bf3 8fbe 0bb8 77bd
000000d0: b3fd 7e3e fab7 953d 1fcb 68be ab5c 5ebd
000000e0: aeb8 a83c c768 60be 7826 9b3d e105 633e
000000f0: 4a7b 39be 4ecb 933c e0df fcbd d4a0 09be
00000100: 61cc bcbd cc35 093e b1d4 97bd 8e20 06be
00000110: f726 803d 5e34 59be 58c5 11be b96a c73c
00000120: 0c11 b1be 74af 0dbf f982 8abe 0728 a2be
00000130: 7f9c dabe 4616 a6bd e81b e6bd 9699 443e
00000140: b6a0 6cbe fbd4 e7bd a5ef 99be 29e1 37be
00000150: cb8a e23c 54ee 793e 7eb5 52bd 82f1 15bb
00000160: aef3 3cbd 3d96 f83d 9916 903d b409 0a3f
00000170: bc82 47be a913 9abe ca78 d6bd 51b0 0c3d
00000180: 2849 74bd 5a96 3e3d 5845 8fbd 3bcf 90bd
00000190: 8744 95be deb0 2d3e ebb2 053e 43a7 80be
000001a0: 50f3 84be b334 763e 740b d9bd 7782 c6be
000001b0: d84b 9c3e 4605 0d3e b3eb 84be 4382 da3c
000001c0: 20d9 27bd 7115 6dbe d68e 8d3d d2d7 f0bc
000001d0: 7d40 873d c716 a83e 7a3a d0be 5724 643d
000001e0: e4b4 1b3d 2183 b5bd e93a b23e 64a7 90be
000001f0: 27cb 39be 086c 5c3e c642 9c3e 5d0b 92bd
00000200: 7a38 963e b557 c73d 9190 0b3e 578c eabd
00000210: d739 adbe 8ad1 88be f325 283e cc2b 1c3e
00000220: 266e 313e d690 d53c 9cd9 0cbe 8456 113e
00000230: c14a 7d3e bac7 ea3e a953 503d 2ce6 963d
00000240: a1b9 32be 6dd7 1dbd edfb 7ebe 27aa 9f3e
00000250: 4c52 1cbe 5495 693e 2dff 453e 1e8b 0cbe
00000260: 88cc 79bc 5e26 0cbe 6792 693e 84c4 2fbe
00000270: f082 4c3e 11ae 18be d75d ea3c c653 033d
00000280: a528 283e a0d3 27bf 3850 223e 780f 71be
00000290: 056a 1abf 01b2 803d e7c0 043d 8c32 893e
000002a0: 93f7 02be 1d2f 62be bb19 dc3d 507f fa3d
000002b0: 0d5c df3c 227e edbd 7eaf b93d 3ce0 d0be
000002c0: f55c 5bbd 5634 95be 56a5 743e 80a8 233d
000002d0: 3adf ff3c bb52 2a3e fb7b fbbd 2a81 ea3d
000002e0: 5c8f 86be 97dc 8abe c2d0 703b dbb9 ff3d
000002f0: b783 20be 33ae cdbc 9a54 b63e 808f d93e
00000300: bcea 3b3e c58c 1f3e 24cc 2c3e 247f f63d
00000310: 259c 24bd c7f1 9f3c 01e4 943d 0c1d ee3d
00000320: 354e 0a3e af18 593a d93d fa3d f9fd 803e
00000330: 260a 853e 6b52 163e 1d18 8e3e 798f 30bd
00000340: 224a 74be 7cdd 363e c5d8 44bd 134e d33d
00000350: 9700 85bd 9bd4 7f3e fdda 0abe 40d5 c23e
00000360: 7cb8 a3be a115 10be 2548 873e 437c a73a
00000370: d675 893e f332 693e a39e 9c3e 6153 48bd
00000380: bdb0 98be e505 64be 9333 893d c3cb 9c3d
00000390: e48b 10bf 779e fe3d e0dd ad3e b899 6dbe
000003a0: d20c 983e b635 2d3e 870b dbbc 497d 07be
000003b0: 2342 3fbe e17d 003d 4e42 e93d 83da 013e
000003c0: 6b40 50bd 60e6 0f3e 6dab 31be 42a1 64ba
000003d0: ba73 f9bd 600e 1c3e 282f 6b3e d857 fd3d
000003e0: 005a 99be def5 d33e f7cd 653e 2dc3 703e
000003f0: 7b67 38be 3771 b7bd c917 d93d c1ef 03bd
0.43708858 0.28495184 0.15771319 0.08676227 0.14637725 -0.43295085 -0.32002383 0.27808583
0.23787892 0.13413496 0.4386998 0.13246636 0.02440689 0.042187348 0.20979793 0.012095836
0.008543552 -0.083826944 -0.029864255 -0.30445924 -0.16537102 -0.105260015 0.04336092 0.20490387
-0.06545193 0.21442355 -0.20767127 -0.11326737 -0.05457469 -0.1967081 -0.22814083 -0.10268997
-0.052936967 -0.11998368 0.02948634 0.24857268 -0.2666838 0.105833694 0.3388966 0.36805135
-0.108723246 0.19001874 0.16685914 -0.18760133 0.36321965 0.24670692 0.23141418 -0.25821638
-0.20702223 0.19889002 -0.28115258 -0.06047825 0.24901466 0.07310481 -0.22733735 -0.054287594
0.020595875 -0.2191497 0.07575697 0.22170211 -0.18113437 0.01804128 -0.12347388 -0.13440257
-0.0921867 0.13399428 -0.074136145 -0.13098356 0.06257432 -0.21211383 -0.14235437 0.024342882
-0.34583318 -0.55345845 -0.2705305 -0.31671163 -0.42697522 -0.08109717 -0.112357914 0.19199213
-0.23108181 -0.1131992 -0.30065647 -0.17956986 0.027654072 0.24407321 -0.051442616 -0.0022879546
-0.04613083 0.12138031 0.0703556 0.53921056 -0.19483465 -0.30093125 -0.104722574 0.034347836
-0.05964008 0.046530105 -0.06995648 -0.07070776 -0.29153845 0.16962 0.13056533 -0.2512761
-0.25966883 0.2404354 -0.10597888 -0.38771412 0.30526614 0.13771543 -0.25961074 0.026673442
-0.04097855 -0.2315271 0.069120094 -0.029399786 0.06604097 0.32829878 -0.40669614 0.05569872
0.038014308 -0.088629015 0.3481057 -0.2825271 -0.18143903 0.21525586 0.30519694 -0.071310736
0.29339963 0.09733526 0.13629366 -0.11452549 -0.3383319 -0.26722366 0.16420726 0.15251082
0.17327175 0.02607004 -0.13754886 0.1419316 0.24735548 0.45855504 0.050861035 0.073681206
-0.17453624 -0.038535524 -0.2490079 0.31184503 -0.15265769 0.2281087 0.19335623 -0.13724944
-0.015246518 -0.13686511 0.22809754 -0.17164809 0.19971824 -0.14910151 0.0286092 0.032062314
0.16421755 -0.6555729 0.15850914 -0.23541057 -0.6031802 0.062839516 0.03241053 0.26796377
-0.12789755 -0.22088285 0.10747095 0.12231314 0.027265573 -0.115963235 0.090666756 -0.40796077
-0.053555448 -0.29141492 0.23891196 0.039955616 0.031234372 0.16633122 -0.12279507 0.11450417
-0.2628125 -0.27121422 0.0036745523 0.12486621 -0.15675245 -0.025107479 0.3561142 0.42492294
0.18351263 0.15581043 0.16874748 0.12035969 -0.040187974 0.019524468 0.07270051 0.11626634
0.13506396 0.0008281571 0.12218828 0.25193766 0.25984305 0.14679877 0.27752772 -0.043105576
-0.23856404 0.17857927 -0.04805829 0.10317626 -0.06494253 0.24983446 -0.135601 0.38053322
-0.31976688 -0.14070751 0.2642223 0.0012778122 0.26847714 0.22773342 0.3058978 -0.04890764
-0.2982234 -0.22267874 0.0669929 0.07656052 -0.56463456 0.124325685 0.3395834 -0.2320317
0.2969728 0.1691502 -0.026738895 -0.13231386 -0.18677573 0.031370047 0.113896 0.12681012
-0.050842684 0.14052725 -0.1735055 -0.0008721539 -0.12180276 0.15239859 0.22967207 0.123702705
-0.29951477 0.4139852 0.2244185 0.23511954 -0.18008225 -0.08957141 0.1060024 -0.03221107

decoder.0.bias f4 [4096]
00000000: 76ac f13d 690c 133e 50b8 11bf 6660 423d
00000010: 9260 c5be 7835 90be 848f a23c 488f 503d
00000020: dbda c7be 3a47 3fbe 639f b7be 5570 a53e
00000030: ba84 52be 36b6 0dbe 4e89 b6be aaa3 033e
00000040: 33e2 dc3e 17a8 a2bd 0f7a 763e 7d7a 9dbc
00000050: dcc4 b33c 33c6 73be e5c4 d3bd 2267 f6bd
00000060: 6f69 8f3e 8960 4c3e aa47 65bd da58 05bf
00000070: 8d04 a5be 18bd 02bf 1cd4 a1be 3662 ea3e
00000080: 0e82 043f 826e 113f 109a 99be 3f77 24bf
00000090: be0d 7dbf 2680 02bf 434e 093e 29bf 1abe
000000a0: 739f ed3e 3882 8e3d 7061 afbb e479 b7be
000000b0: cbac 33bf 26e6 8f3e 2b8e 91be e41a 123f
000000c0: 5f6c db3e 5f1e 31be 7daa 1a3e 91c1 f83e
000000d0: 5452 563e 40e3 043f 0e32 e6bd a953 febd
000000e0: 7dd7 31be 6f50 5abe 2f0f 4fbd 36d6 293e
000000f0: 7541 273e d20e af3e 6633 803d 10f3 7fbe
00000100: 0a65 10bd 147e b0be 3e97 d83e e6a3 4bbd
00000110: 55cc 443e 1aa9 d13e 08f6 c13d 5c67 a33e
00000120: 9fcd ef3d 4199 0d3e 4813 b73e 7884 9e3d
00000130: 5f6f 653e d212 41bc d3c6 f63d bb14 cd3e
00000140: 5948 cb3e afac 1c3f 4f09 eabd 3723 ebbb
00000150: ae66 6b3e fb37 e5bc 31f1 803e 0963 3abe
00000160: 3168 33bd 4ac2 95be ca7c 1abe 75d8 10bf
00000170: 0237 babe ee99 9cbd f5b9 e6be 77e9 03be
00000180: ee80 6cbe 520b 3cbe f334 9bbe 4584 2ebf
00000190: cbe0 c8bb dfda 35bf f384 3a3e 9904 0f3b
000001a0: 485d a83d ad49 c5be 8e9a 053f 0b46 5c3d
000001b0: 3412 68bb 7c46 3d3f 1941 d63e eff7 71be
000001c0: c3c3 b93e e1f7 d03d 8bf7 023f f82f 1e3f
000001d0: 2090 f43e 2162 303e 0989 c33e 01ab 8e3c
000001e0: 15af 863c d2c2 5c3e fc8d a83e 61af f8bc
000001f0: db87 9c3d bea8 dfbe 7265 9a3d 9667 37bd
00000200: c29c 8abc 1615 ccbd edbe d4bd 5a40 3c3e
00000210: 93a6 413e a46e 953e fc2b 8cbe c610 153e
00000220: 48a4 133e 9f50 393e 9cd8 043f 9c9d 7bbe
00000230: d6a0 babe 0448 383e b4cc b73e 7324 553c
00000240: d6f4 183d 6d3b 183f d894 9b3e f9b4 14bf
00000250: 822e b5bd 09ca b6bd 3991 3a3e 52d9 da3e
00000260: 754e 84be 73fc 2fbc 5668 d7be 8c71 2dbf
00000270: db59 2ebf d1bc 69be 18db 22bb c020 edbe
00000280: 9508 dabd cb8d 96bd 9711 3abd cb29 71be
00000290: 671d e7be fcda b8be cf03 72be 8615 97be
000002a0: c57f 7a3e 6803 873e c584 62be a1c1 7abf
000002b0: 2aba 0b3e 0608 253d 0345 f13e fcfa 85be
000002c0: b634 963e 4f7c 923c 5c04 d23e f2f7 2d3f
000002d0: 56cf f63d d8d2 d73e 6af1 083f 3676 0abe
000002e0: 1e06 9b3e 41a5 15be f1a7 c9bd 9d40 303e
000002f0: d186 1e3f 947b 8bbe 802f 14be 5fce 0c3d
00000300: 8ae1 453d be41 6a3e dbbb 1e3e b824 d43e
00000310: 963c d23c b895 273d 1e9f 363e 7c75 e9be
00000320: e6a7 e83b eb51 82bc 245f 083f 1f63 85be
00000330: 048b 2b3c 09af 5fbe 58a4 2f3f 7e71 d3be
00000340: bf50 583d 4ebf cebd 1eea 1fbd d0e2 f8be
00000350: 1dcb 7f3e c132 f2bd 875d 683e 9f39 4c3e
00000360: d86d cf3e 75ab 55be ac1e a3be fa9d fabe
00000370: 3776 10bf f380 64be 62bb 8d3e 36ff 3c3e
00000380: 97c5 033e 882f cdbe c67e 4dbc 2853 18bf
00000390: 69de 22bf 3617 60be 0939 00bd 5009 aabe
000003a0: c704 0bbe bdd2 5ebe 75d5 493e 2600 d9bd
000003b0: 106b b5be b97f efbc 1159 84be 3900 223e
000003c0: 0511 363d 55a8 8ebe 319d 9f3e 68c2 f1bd
000003d0: e8cf 8e3e e317 ef3e d21b 8f3e b4ef 2a3e
000003e0: c5fe 8fbe 973a 1ebe 703a 6ebe 662d 4b3e
000003f0: 5b37 fc3d 1f6b 05be e316 223e d596 1d3e
0.118004724 0.14360203 -0.56921864 0.047455214 -0.3855024 -0.28165793 0.019843824 0.050917894
-0.3903416 -0.18679515 -0.3586379 0.32312265 -0.20558444 -0.13839039 -0.3565163 0.12855402
0.43141326 -0.07942217 0.24069999 -0.019223446 0.021944456 -0.23806076 -0.10340289 -0.1203139
0.28010127 0.199587 -0.055976547 -0.520887 -0.32230034 -0.51069784 -0.3160714 0.45778054
0.5176095 0.56809247 -0.30000353 -0.64244455 -0.98849094 -0.5097679 0.1340876 -0.15111984
0.46410713 0.06958431 -0.0053521916 -0.35835183 -0.70185536 0.28105277 -0.28428778 0.5707228
0.42856118 -0.17296742 0.15104099 0.4858518 0.20929843 0.51909256 -0.11240016 -0.12418301
-0.17367359 -0.21319745 -0.05055159 0.16585621 0.16333564 0.34190995 0.062598035 -0.24995065
-0.03525261 -0.3447119 0.4230289 -0.049716853 0.19218571 0.40949327 0.09470755 0.31914794
0.11709141 0.13827993 0.35756898 0.0774011 0.22405766 -0.011784272 0.120496415 0.4005488
0.39703634 0.61200994 -0.11427557 -0.007175829 0.22988388 -0.027980795 0.25184014 -0.18201841
-0.043800537 -0.29249793 -0.15086666 -0.5658029 -0.36370093 -0.07646547 -0.4506375 -0.12882029
-0.23096058 -0.18363693 -0.30313835 -0.6817058 -0.006130313 -0.71037096 0.18214779 0.0021822809
0.08220917 -0.38532773 0.52188957 0.053777736 -0.003541124 0.73935676 0.4184654 -0.23629735
0.36282167 0.10203529 0.5115897 0.61791945 0.4776621 0.17224933 0.38190487 0.017415525
0.016440907 0.21558693 0.32920825 -0.030357065 0.076431 -0.43683428 0.075388804 -0.04477652
-0.016920451 -0.09964959 -0.10387979 0.18383923 0.189112 0.29185975 -0.27377307 0.1455718
0.14418137 0.18097161 0.5189302 -0.24571842 -0.36450833 0.17996222 0.35898364 0.013009178
0.03734287 0.59465677 0.30386996 -0.5808864 -0.08846761 -0.08925254 0.1821946 0.42743927
-0.25841108 -0.010741341 -0.4207179 -0.67751384 -0.6810586 -0.22825934 -0.0024849828 -0.4631405
-0.10646168 -0.073512636 -0.04542693 -0.23551099 -0.4513962 -0.36104572 -0.23634265 -0.2950861
0.24462803 0.26369786 -0.2212096 -0.97951704 0.13645235 0.040290855 0.47122964 -0.26168048
0.2933709 0.01788154 0.4101895 0.6795646 0.12051265 0.4215305 0.5349337 -0.13521656
0.30278105 -0.1461382 -0.098464854 0.17212148 0.61924464 -0.2724272 -0.14471245 0.0343765
0.048310794 0.22876641 0.15501349 0.41434264 0.025663655 0.040914267 0.17834136 -0.45597446
0.007100093 -0.015908202 0.53270173 -0.26052186 0.010470156 -0.21844114 0.68610144 -0.41297525
0.05281138 -0.10095082 -0.03904163 -0.48610544 0.24979825 -0.11826087 0.22691928 0.19943856
0.40513492 -0.20866187 -0.31859338 -0.48948652 -0.5643038 -0.22314815 0.27682024 0.1845673
0.12868343 -0.40075326 -0.012542432 -0.59501886 -0.6362062 -0.21883854 -0.031304393 -0.3321023
-0.13576041 -0.21760078 0.19710334 -0.105957314 -0.35433245 -0.029235708 -0.25849202 0.15820397
0.044449825 -0.27862802 0.31174615 -0.11804658 0.27892995 0.46697912 0.27950913 0.16693002
-0.2812406 -0.15452038 -0.2326448 0.19841537 0.12315246 -0.13029145 0.15829043 0.15389569
